models/multimodal_model_model1_20250121_182032.pth (torch, 37391 bytes, 8 tensors)

text_fc.0.weight f4 [3, 768]
00000000: 556d 39bd b8d1 973c 07bb ab3c 20b5 9b3d
00000010: 3b78 0d3e 92d6 f7bc 3153 a7bd db34 81bd
00000020: 0f1f 47bc 3e54 813c d3dc 4c3e fa32 8f3d
00000030: 57c4 223e 076f 6fbd 16bb ed3d f1e5 7dbd
00000040: b05a 67bd 91c5 e43d 42c8 f5bd 8a8b 0d3d
00000050: 1494 45bd a211 5abc f29c b53d 079f 2fbe
00000060: d3a7 e13d 6ab1 dc3d 2e41 993c 4cec 8e3c
00000070: ed3d 0a3c 0cc9 c73d ab8a 763d a3c3 663e
00000080: 980f b6bc 6e14 34bd 0a40 94bd 04c6 04bd
00000090: b479 3b3d b15b 6ebd fb40 823d ab06 5fbc
000000a0: 62ed 23bd a1e6 f93c b725 993d bae2 c0bd
000000b0: 8d9f 9dbc ee0b f7bc 273e 31bd 3edb 84be
000000c0: 7f6a 54be 2a47 45bd 0e17 a6bd 1eff 103c
000000d0: a309 89bd d36a 913d b04c a73d 3c4e a23d
000000e0: cf3f 093e fb47 46bd ae02 ccbc 8fe2 023c
000000f0: c3b2 fd3d e132 5dbe b795 2bb9 da37 563d
00000100: 96f2 103d bf44 b5bd d67a 81bd 51ce 82bd
00000110: dc76 43bc a7c2 2e3e b6e0 333e da6c b5bc
00000120: 0848 f7bc d22b 073e e8e9 623d 9c35 f1bd
00000130: 12ef 293d 6d46 133e 79a2 f63d 018f 02be
00000140: 5d08 edbb d6dd efbd cb6f ba3d d98f 053e
00000150: fec6 81bd e5be 143e 4393 e43d c087 aabd
00000160: edc8 bc3d d804 04bd c8a2 bdbd c940 d83d
00000170: ebe0 a23d 4cb4 333b 2b8e 84bd 7f6e 9d3b
00000180: c0cd ebbd 70fd 0d3d 3f67 f13d e5fd 243d
00000190: 7390 da3d ffa2 3ebd bd76 9dbd 282a db3d
000001a0: 6fbd 89bc 956e 0b3e ba16 9b3d e6ac 8bbd
000001b0: f74c fe3d 85c6 b33d 857f a5bd be4e 0dbe
000001c0: 1dce 593d ad64 883d 5b53 18be 63bc 953d
000001d0: 85cf 8bbd e2ed 7f3d 4f20 21bd 3796 98bd
000001e0: 01e7 ad3c ce62 6a3e 6953 163d ec16 c43d
000001f0: b039 aa3d 739f ce3c 0617 6e3d b569 ff3d
00000200: 9c46 143e bb4d 03be a8c0 233d 68ab 25bd
00000210: fe09 443d b822 93bd 294b c3bc 1060 8a3d
00000220: b6db 9abd 3f77 df3d c48d 2a3d 286f a83d
00000230: 7cc9 54be 6a03 0dbd 475b 8d3d ddb1 76be
00000240: df4c a7bd 4e2f 1abd bc3b f93c 55ac 353e
00000250: bb16 43bc 901b 393c 5e5f 31bd 549b 3b3d
00000260: 4a4f a13d 3b81 c3ba c230 853d 50f5 883d
00000270: 34a1 1abd 53de 3b3d 095b c0bd 82ea 5cbd
00000280: 0fab 533d 3266 7cbd fce4 593d b426 3f3e
00000290: 7dd9 e43d c5f7 423c b09b c9bd b35a a6bd
000002a0: cc01 843e 8aa9 e83d 2a04 213d cbaa 94bd
000002b0: 205d c63c a36c 9cbd 5c03 c8bd 83ec 92bc
000002c0: 289e 843d 862d e23d 6dc6 893b 8c62 53bc
000002d0: f076 19bc 8c8c d63a d5bd b03d 47e3 d5bd
000002e0: b49f bd3d ed34 60bd 2f2d b5bc cf0d 033e
000002f0: 8651 fc3d 88df b9bd 5332 8e3c 6238 c7bd
00000300: f8c0 7b3d cf44 5c3d 436f d5ba f8ac bfbc
00000310: 9d24 bfbb 4bb1 3a3c 516a a9bd 28ab 8cbc
00000320: 52c7 003e 3149 05bd 9157 9d3c d6da 2fbe
00000330: 92ac 99bd 38d2 9ebd aacd 85bd b3df c3bd
00000340: 9aba 84bd ca3e ef3c 1bb0 50bd 4d3d 653d
00000350: 4f7a 4d3c 628b 2ebe b50f 7f3d a597 aebd
00000360: 84ee b2bc 1ceb a13d 7d12 57bd 2e2f 443d
00000370: 0ee7 153e bf38 603d 3bc6 4d3d 78c1 ad3d
00000380: e403 eebd b8bc 0e3d 43e3 3bbc e476 36bd
00000390: edd5 31bd 4c8c 1e3d aa0e 3ebd 1acc e9bd
000003a0: 2b55 033e 414c 4fbe 2bff 8a3d 3e6e 033c
000003b0: 2eff b639 2d6e 23bd 3794 623e a986 883d
000003c0: 0d96 353c 2448 89bc 8089 91ba c390 a6bc
000003d0: 6ec4 9f3d ddde 74bd ba94 a6bb 15cd 06bd
000003e0: de6d 3d3e b2f1 c3bd bc13 c4bc 898b 21be
000003f0: 0c39 113e a192 49bd 819e 183d ba7e 113d
-0.045270283 0.018532619 0.020963205 0.07602906 0.13815396 -0.030253682 -0.081701644 -0.063089095
-0.012153401 0.01578724 0.20006113 0.06992145 0.1589521 -0.058455493 0.116079494 -0.061986867
-0.05648297 0.11170495 -0.12001087 0.034556903 -0.04823692 -0.013309868 0.088678256 -0.17150508
0.11018338 0.107760265 0.018707838 0.01744666 0.008437616 0.097551435 0.060190838 0.22535567
-0.022224233 -0.043964796 -0.07238777 -0.032415405 0.045770362 -0.058192912 0.0636005 -0.01361243
-0.040021308 0.03050548 0.07477897 -0.09418245 -0.019241119 -0.030157056 -0.043272164 -0.2594852
-0.2074375 -0.04816357 -0.08109866 0.008849887 -0.06691291 0.07100453 0.08168924 0.07925078
0.13403247 -0.04840849 -0.024903622 0.007988586 0.12387612 -0.2160144 -0.00016363604 0.052299358
0.035387598 -0.08851003 -0.06322257 -0.06387008 -0.011930194 0.17066441 0.17566189 -0.022146631
-0.030185714 0.1320031 0.05539885 -0.11777803 0.04148776 0.14382334 0.12042708 -0.12749864
-0.007233663 -0.11712234 0.09103354 0.13043155 -0.06336783 0.14525945 0.111609004 -0.083266735
0.09218011 -0.03223118 -0.09259564 0.10559232 0.07953056 0.0027420698 -0.06472429 0.004804432
-0.11513853 0.034665525 0.11787271 0.040281195 0.10672083 -0.046542164 -0.07688663 0.107014
-0.016813962 0.13616402 0.07572694 -0.06820087 0.12417024 0.08778099 -0.08080963 -0.13799569
0.05317508 0.066598274 -0.14875548 0.073113225 -0.068266906 0.062482722 -0.039337453 -0.07450526
0.021228315 0.22889253 0.03670064 0.095746845 0.08311784 0.025222516 0.058127426 0.12471334
0.1448006 -0.1282262 0.039978653 -0.04044667 0.04786109 -0.071843565 -0.02383955 0.06756604
-0.07561438 0.10911416 0.041639104 0.08224326 -0.20779985 -0.034427084 0.069021754 -0.24091287
-0.08168959 -0.03764277 0.030423991 0.1774152 -0.011907275 0.011298075 -0.04330384 0.04580243
0.07876451 -0.0014915833 0.065034404 0.06687415 -0.03775139 0.04586632 -0.093923636 -0.05393458
0.051676806 -0.0616209 0.053196892 0.18667108 0.11174295 0.011899893 -0.09844148 -0.08122768
0.2578262 0.11360462 0.03931061 -0.07259139 0.024214327 -0.07637908 -0.09766266 -0.017935043
0.064754784 0.11043839 0.0042045624 -0.012901913 -0.009366736 0.001636879 0.086299576 -0.1044374
0.092589766 -0.054737974 -0.022116272 0.12798236 0.12320237 -0.09075838 0.01735798 -0.09727551
0.061463326 0.05377656 -0.0016283769 -0.023397908 -0.005833222 0.011394809 -0.08272231 -0.017171457
0.12576035 -0.032540504 0.019206794 -0.17173323 -0.07503618 -0.0775494 -0.06533368 -0.095641516
-0.06480904 0.029204745 -0.050949197 0.055966664 0.012541368 -0.17045358 0.06227084 -0.08525018
-0.021842249 0.07906172 -0.052507866 0.047896557 0.14638922 0.054741617 0.050237875 0.08484167
-0.11621836 0.034847945 -0.011467758 -0.044546977 -0.043416906 0.038708016 -0.046400703 -0.114158824
0.12825458 -0.20243932 0.06786951 0.008021889 0.0003490387 -0.039899994 0.22126852 0.066663094
0.011083138 -0.016758032 -0.00111036 -0.0203327 0.07801138 -0.05978285 -0.0050836476 -0.032910425
0.18498942 -0.09567584 -0.023935191 -0.15775885 0.14181918 -0.0492121 0.037260536 0.035521246

text_fc.0.bias f4 [3]
00000000: 1c31 933d 6487 a23a 24eb 1f3c
0.07187101 0.0012399969 0.009760652

image_fc.0.weight f4 [3, 2048]
00000000: 976d 5f3a 0a28 3fbc b412 17bc 0d1b 8fbc
00000010: bb10 80bb 8384 a33b 01a8 1abb bb6c ddbb
00000020: 1fd5 24bb 81d5 5e3b 1823 073b c285 debb
00000030: 9ff7 3aba 4e57 213c ec27 89bc 7393 72bc
00000040: 863f 89bb bfd8 dc3a 02b3 b1bb d383 143b
00000050: ad0c 2fbb 5262 e33b ac9a 8a3a 41bd a7bb
00000060: 82d2 3bbb 0e74 5a3b b8f3 44bc b872 2b3b
00000070: 451f a13b 9540 453b 2bca d6bb 8cbe 073c
00000080: 5d22 6c3b bd59 82bc e8aa 5eba 3702 2b3a
00000090: 1bea a63b df22 c8bb 6ddd 2ebc 64db 19bb
000000a0: 08d8 f7ba 02f8 d93a 4a39 e0b8 2b61 513b
000000b0: 9ced 6f3b 6ff8 c8bb c100 293b 32f6 51bc
000000c0: b93d 973b 8c2f 45bb e807 eb3b aeff 8d3b
000000d0: 9bd2 c13a 798f a1bb 9a99 86bb e0ee 9cbb
000000e0: 38de e2bb 8435 65bc 9cec 62bc 2921 01bc
000000f0: f99d 3dbc 05bc 3abc 4f48 c33a b1a1 e03b
00000100: baff 873a adab 0ebc 1193 013b 73d0 2b3b
00000110: 1b99 7ebc b23a 4396 5715 fbb9 3711 2c3c
00000120: fd83 853a 54b3 2b3a 36c3 7cbc f6bb a73b
00000130: 9876 873b 9348 ac3b 0490 bebb 122d bf3b
00000140: 3bea 97bb dc9a 0d3b b039 0a3c 4605 0bbc
00000150: 0202 ae3b f8f3 963b 880f 05bc f8c9 123c
00000160: 3ff3 1c3c 1766 97bb eccf b73b 04a7 a2bb
00000170: a275 1cbb 57f0 47ba 0b4b a43b 1fb3 803b
00000180: c636 c3bb 2f09 95ba 204d de3b 80a5 0fbc
00000190: 5a40 09ba 82a4 71bb 2e70 aabb ed05 f1bb
000001a0: 1c04 aabb 87c0 e3ba 799d 3abb ba55 453b
000001b0: 5ea4 23bb df5d 11bb 6180 89bc d929 14bc
000001c0: 5ffa aebb 4a9e 6b3b 5b15 143c 6cbc 6fbc
000001d0: bd83 06bc e27a 01bc 4163 32bc 8eb2 453b
000001e0: bad6 bdbb ffe7 e43b 7c92 b7bb 3181 86bc
000001f0: ad8c aebb 5db1 683b a425 8f3b ccb9 c7bb
00000200: 1ee3 9dbb ea65 c83b 0c6f 5fbb 0c4e 2a3b
00000210: c089 833b 005e a13b 326c 6dbc 46f8 66bb
00000220: 46c5 173b d34e c43b 85fb 1ebc 9195 8fbb
00000230: 05d2 ebbb 0078 fd3b 0592 053c ddde c33b
00000240: 5e2a ecbb ca52 6ebc a24e 24bc 406e db3a
00000250: 8e4c 6fbb 84a7 9ebb 4101 82bc 7a4b f2bb
00000260: 2b51 4b3a b63a 053c 1be8 e5bb 6b9c 083c
00000270: 5057 1abc 6b5e 40bc 2871 48bc a4d8 7eba
00000280: 4b14 97bb 1744 22bc c079 2ebc 5395 ccb9
00000290: cff6 a0ba 542c 1037 e502 8b3b cd0b 92ba
000002a0: 15fc 263c 4d38 80bb 137b c3bb c69d b7b8
000002b0: 1547 90bc 07be afbb e387 36bc c66e 613b
000002c0: dc19 11bb 2d70 833a 850e 833a 15cd c23a
000002d0: e4fd 3539 5552 ca3b 3296 9b3b e025 34bc
000002e0: 97a3 debb 6fe2 f63b 8cfc 783b d96b 5fbc
000002f0: 389e 883b 296c f8bb 6233 2ebc 1059 15ba
00000300: 9eb1 07b9 e574 243c a3bc 7e3b 1ba0 a1bb
00000310: 954c f6bb 640b 80bc b896 3bbc a7e0 97bb
00000320: 607b ea39 ebe1 1dbc 5553 84bb b56e 19bc
00000330: 263b 64bc e0bd 0f3c 77c7 483a da52 11bc
00000340: 91dd 763b c6ce fabb 1841 7fbc 2277 b63b
00000350: 0db4 b33b c5b5 ffbb 934d 723b 360f 183b
00000360: c086 81bc 0b55 233b 9671 c139 94ea 753b
00000370: d9e5 ecbb 3796 433b e3d9 28bc cefc 463b
00000380: 52a5 f4bb d2e2 58bc 3f46 56bc 256c 7bbc
00000390: 133e 14bb 98a4 843b 913d 183b 67d0 d53b
000003a0: d1e9 1dbc 7972 48bc 483a e6ba 6a2a dfbb
000003b0: 27b8 b4bb 36a7 0a3c 15da 7fbc 4c6c 66bc
000003c0: a4a2 55bb 8dfe b73b 2e1b 84bc 95af aebc
000003d0: ac3f 76bc 953c a6bb 6cbc 1abc 09d3 773b
000003e0: f708 3eba aabd 5ebc 412d 1f3c 00f3 1abc
000003f0: cd7e 5bb8 cba0 81bc 9079 b9bb 56a1 d2bb
0.0008523105 -0.011667261 -0.009220768 -0.017468954 -0.0039082444 0.004990162 -0.0023598673 -0.0067573464
-0.0025151444 0.003400177 0.0020620283 -0.0067908475 -0.00071322353 0.009847475 -0.016742669 -0.014805662
-0.004188481 0.0016849263 -0.0054229507 0.0022661581 -0.0026710436 0.006939211 0.001057466 -0.0051189964
-0.0028659408 0.0033333334 -0.012020998 0.0026160907 0.0049170577 0.0030098308 -0.006554862 0.008285176
0.0036031224 -0.015911931 -0.0008494095 0.00065234624 0.0050938255 -0.0061076726 -0.010672909 -0.0023476714
-0.0018908987 0.0016629698 -0.00010691823 0.0031948786 0.0036610132 -0.006133131 0.0025787803 -0.012815045
0.004615512 -0.0030088155 0.0071725734 0.004333458 0.0014787497 -0.0049304334 -0.004107666 -0.0047892183
-0.006923463 -0.01398981 -0.013850357 -0.007881441 -0.011573308 -0.011397366 0.0014898869 0.0068552126
0.0010375895 -0.008707923 0.0019771496 0.0026216775 -0.015539433 -1.5770496e-25 -0.0004789035 0.010502151
0.001018643 0.00065498543 -0.015427401 0.0051188422 0.0041340105 0.005257675 -0.005815508 0.00583423
-0.0046360767 0.0021607196 0.008436605 -0.008485144 0.005310298 0.00460672 -0.008121379 0.008959286
0.009579479 -0.0046203244 0.005609503 -0.0049637575 -0.0023873826 -0.0007627061 0.0050138286 0.003927603
-0.0059574572 -0.0011370535 0.0067840964 -0.008767486 -0.00052357244 -0.0036871736 -0.005201361 -0.0073554427
-0.005188478 -0.0017376103 -0.0028475209 0.0030110911 -0.0024969797 -0.0022181196 -0.016784849 -0.00904318
-0.005339905 0.0035952502 0.009038295 -0.014632326 -0.00821012 -0.007902833 -0.010887922 0.0030166241
-0.0057934197 0.006985664 -0.005602179 -0.016419025 -0.0053268285 0.0035506107 0.004368501 -0.0060951468
-0.0048183342 0.0061156647 -0.0034093289 0.002598646 0.004014224 0.0049245358 -0.014491128 -0.0035243197
0.0023158356 0.005990842 -0.009703522 -0.0043818434 -0.007196667 0.0077352524 0.00815249 0.005977495
-0.007207199 -0.014546106 -0.010028513 0.0016741231 -0.0036514136 -0.0048417468 -0.015869739 -0.0073942514
0.00077559304 0.008131674 -0.0070161945 0.008338074 -0.009420231 -0.011741261 -0.01223401 -0.0009721613
-0.0046105734 -0.009903929 -0.010649145 -0.00039021167 -0.0012280586 8.59339e-06 0.0042422884 -0.0011142433
0.010191937 -0.0039129616 -0.0059655993 -8.7555076e-05 -0.01761202 -0.005363229 -0.011140796 0.0034398302
-0.0022140658 0.0010027938 0.0009998834 0.0014862145 0.00017356087 0.0061743655 0.0047481293 -0.010995358
-0.006794404 0.007534317 0.0037992327 -0.013636553 0.004169252 -0.007581253 -0.010632368 -0.000569717
-0.00012940771 0.010037635 0.003886976 -0.004932416 -0.0075164535 -0.015630431 -0.011449508 -0.004634935
0.0004472388 -0.009636383 -0.0040382543 -0.0093647735 -0.013930118 0.008773297 0.0007659117 -0.008869851
0.0037668685 -0.007654044 -0.015579484 0.005568401 0.00548411 -0.007803651 0.0036972507 0.0023202426
-0.015811324 0.0024922516 0.00036896457 0.0037523853 -0.0072295484 0.0029844174 -0.0103058545 0.0030363086
-0.007465997 -0.013237672 -0.013078271 -0.015345608 -0.0022620007 0.0040479414 0.0023230056 0.0065250876
-0.009638266 -0.012234324 -0.0017564977 -0.006810476 -0.0055151167 0.008462718 -0.01561596 -0.014063906
-0.0032598162 0.0056150616 -0.016126242 -0.021323958 -0.015029829 -0.00507314 -0.009444337 0.0037814996
-0.00072492607 -0.013595024 0.009715379 -0.00945735 -5.233176e-05 -0.015823742 -0.0056602433 -0.006427924

image_fc.0.bias f4 [3]
00000000: 44dd aebc fbfc c039 3a6d 663b
-0.021345742 0.0003680958 0.003516032

classifier.0.weight f4 [3, 6]
00000000: 4a51 3cbf 5092 36b7 7bbc 25ba e2d5 933e
00000010: 456f 3c3e 1b4b 7e3d 3174 8c3e 3679 3637
00000020: f5d8 b5bd 92e9 30bb bc70 641b 9c52 db14
00000030: 287a a33e d4ee 74ba 0d45 a022 c736 02bd
00000040: 09b1 773d d7e2 5eb8
-0.7356154 -1.0882111e-05 -0.0006322336 0.28874117 0.18401821 0.062083345 0.27432397 1.0876267e-05
-0.08879272 -0.0026994688 1.8896144e-22 2.2145933e-26 0.31929135 -0.00093434495 4.3441197e-18 -0.03179052
0.06047157 -5.3140186e-05

classifier.0.bias f4 [3]
00000000: 2e8b 213f 2d90 a3be 3682 8ebe
0.63102996 -0.31945935 -0.27833718

classifier.3.weight f4 [3, 3]
00000000: 82f7 bd3b e14d f1bc bd6b 21bf c768 033f
00000010: cffe 393f 2f1a edbd f834 fabe fa1b 50bd
00000020: de70 53bf
0.0057973275 -0.02945608 -0.6305502 0.5133175 0.7265443 -0.1157726 -0.48868537 -0.05080793
-0.82594097

classifier.3.bias f4 [3]
00000000: 0f4a 2f3c 30b6 ae3e 5251 66bd
0.010698809 0.34123373 -0.056229897
