models/multimodal_model_model2_20250120_132611.pth (torch, 38849 bytes, 11 tensors)

text_fc.0.weight f4 [3, 768]
000000 82 3e 29 3e f1 56 a0 bd 7d 59 fc bb f2 94 c1 3d
       0.16527751 -0.07829083 -0.0077010975 0.09452237
000010 09 48 77 3d c5 b4 45 be 26 da cc 3c 97 fc fd bc
       0.060371432 -0.1930724 0.025006365 -0.031004233
000020 7d e8 e3 bd dc 0f 79 3e c0 8f 67 ba 44 9e 23 bc
       -0.11128328 0.24322456 -0.0008833371 -0.009986464
000030 a9 74 87 3d b8 e1 26 3b 65 12 5c 3e eb 76 23 3e
       0.06614048 0.0025464129 0.21491392 0.15963332
000040 1f fd 37 be 46 a3 b0 bd dc 05 69 be 0b 43 8e bc
       -0.17967652 -0.08624892 -0.22756141 -0.017365953
000050 f2 03 ee bd a4 52 63 3e 66 2e 98 3b ec d2 5c be
       -0.11621846 0.22199494 0.004644203 -0.21564835
000060 bf 1b 74 3e 98 55 26 3e da ca 6e 3d bc 28 00 3e
       0.2383871 0.16243589 0.058298923 0.12515539
000070 0c 53 77 bd 44 87 cc bd 86 cc 2e be 60 b5 a3 3e
       -0.060381934 -0.09986737 -0.17070207 0.31974316
000080 ea ef 19 be 7c 23 4c bd 58 34 09 3e a1 04 35 3e
       -0.15032926 -0.049838528 0.13398874 0.17677547
000090 fd 4d 1b 3e fd 26 95 bd 53 31 ea 3d e6 d9 b6 bd
       0.15166469 -0.07282827 0.11435189 -0.089282796
0000a0 13 6a f1 bd 6c db 6d b9 8b 2a b9 3d c4 6f 75 bd
       -0.1178781 -0.00022683822 0.090413176 -0.05992104
0000b0 23 34 4c bd af 45 2b be bc cf 1e 3d 1a 73 03 be
       -0.04985441 -0.16725801 0.03877233 -0.12836877
0000c0 2b 62 81 be 19 8e c8 bd 0e a9 cf 3c b9 7e 56 bd
       -0.2527021 -0.09792728 0.025349166 -0.052366946
0000d0 8c 3d 1b be 05 70 7f 3d 17 50 f1 3d 5e 08 ed 3d
       -0.15160197 0.06236269 0.11782854 0.115738615
0000e0 bb 22 80 3e 94 08 59 be 8d 6c 57 be f2 87 a9 3c
       0.25026497 -0.21194679 -0.21037503 0.020694707
0000f0 29 20 9a 3d d6 68 8f be b6 23 37 be d7 e3 2f 3e
       0.07525665 -0.2800967 -0.17884716 0.17176758
000100 63 5c 62 3e 76 6f 20 be ea e7 3c be f4 ea 1f bd
       0.22105555 -0.15667519 -0.18447843 -0.039042428
000110 4a 3a 04 3d 0f 46 b1 3d 0c 42 3a 3d 91 22 41 3e
       0.03228215 0.08655941 0.045473143 0.18860842
000120 bb 33 47 3b ff 93 b0 3e dc ea 9a 3d f5 47 50 be
       0.0030395824 0.34487912 0.07564327 -0.2033995
000130 05 c6 5b 3d 87 57 6d 3e 4c 54 90 3d 51 b2 fe 3b
       0.053655643 0.2317792 0.07047328 0.007772722
000140 7c c9 8e bd c2 73 dc bd c3 52 1b bd d9 55 29 3e
       -0.06972024 -0.107642666 -0.037920725 0.16536655
000150 6a 82 74 be 45 d6 8a 3c 4c 77 aa bd 2a 2e 8c 3d
       -0.23877874 0.016947875 -0.08323535 0.068447426
000160 e8 11 57 3e 56 6a f7 3d 49 86 31 be 0a b2 e6 bb
       0.21002924 0.12080829 -0.17336382 -0.007040267
000170 9e 85 23 be b9 1e 03 3e fb 24 55 bd 71 ef bd bd
       -0.1596894 0.12804689 -0.05203722 -0.092741854
000180 70 4c fd bd ba e6 3f be 04 55 59 bd c7 00 58 3e
       -0.12368095 -0.18740359 -0.053059593 0.21094047
000190 81 61 a5 3e 89 5a 6e 3d a5 aa 49 be 30 3a ae 3d
       0.32300952 0.05819181 -0.19694002 0.08507192
0001a0 cc 91 ad 3d 8a 12 b2 bc e3 c4 0c be d4 09 b8 bd
       0.08475074 -0.021737356 -0.13746981 -0.089862496
0001b0 41 a1 3a 3d 22 a6 2e 3e 6c 44 95 be d2 22 98 be
       0.04556394 0.17055562 -0.29153764 -0.29714066
0001c0 b2 a6 b1 3d 4c f7 95 3d 0d b8 9e bd 07 8f 2e 3e
       0.08674373 0.07322559 -0.07749949 0.17046748
0001d0 d6 07 ad bd 3a 2c 0f 3e 99 7c 48 be ad 0d 0f 3e
       -0.0844876 0.13981715 -0.1957878 0.1397006
0001e0 86 85 1e 3e ab 6d 3f 3e b4 fb 2a 3e 3f 93 f4 3d
       0.15480623 0.18694179 0.1669758 0.119421475
0001f0 91 bf 10 3d 0d a7 7d 3c 98 6e 33 bd 93 6d 4b 3b
       0.035338942 0.015481723 -0.043806642 0.0031040653
000200 1f 51 38 3e 20 27 50 be 84 f5 d0 3c 07 f4 eb bd
       0.17999695 -0.20327425 0.025507696 -0.11521154
000210 98 64 0d 3e c2 95 90 bd ef 9c 72 bd 9a 92 63 3d
       0.13807905 -0.07059814 -0.059231695 0.055559732
000220 04 76 3d 3e 0a 3e 15 3f b5 50 6a be a5 94 28 3e
       0.1850205 0.5829779 -0.2288235 0.16462953
000230 2a bc 60 3e 87 82 c0 bb 1c 71 90 be e0 23 cf be
       0.21946779 -0.005874935 -0.28211296 -0.40457058
000240 19 d0 54 be f3 4b 0e bd f2 d1 dd 3c 1c e5 c8 bc
       -0.20782508 -0.0347404 0.027077649 -0.02452331
000250 a6 0e ec bd bb 42 79 3d 6b f0 7a bc e2 a4 24 3e
       -0.115262315 0.060854655 -0.015316109 0.16078523
000260 cb 06 59 3e d7 a5 5a bd b7 32 01 3e 3c fa fa bc
       0.21193998 -0.053380813 0.12617002 -0.0306369
000270 be 72 d5 bd 55 c5 73 3d bd ab 0b 3d 49 4f 69 be
       -0.10422276 0.059514362 0.03409933 -0.22784151
000280 7f 3f d1 bd d6 40 5a be 21 19 8d 3c 2e a2 cb 3d
       -0.10217189 -0.21313795 0.017223896 0.09943043
000290 b6 68 e1 be e1 d4 ca 3d 15 76 c3 be 53 8e a2 be
       -0.440252 0.09903885 -0.38176027 -0.3174921
0002a0 1f f2 99 3e b1 b5 89 3e f7 1c 00 be 04 50 12 be
       0.30067536 0.26896432 -0.12511049 -0.14288336
0002b0 2e 33 ad 3c 76 c0 11 3e 52 d7 7f be 4c b8 c8 bd
       0.021142568 0.14233574 -0.24984482 -0.09800777
0002c0 be e0 b1 3d 8a a2 eb 3c 3c 5b 3d 3c 5a 16 28 3d
       0.08685444 0.028764028 0.0115573965 0.04103694
0002d0 8a 19 02 be 51 4b 0b 3e e7 8c 46 3e 9c cd 90 bd
       -0.12705055 0.1360295 0.19389687 -0.07070467
0002e0 5d 3a 4f 3d 5a aa 2d 3e e3 7e b1 bc 27 b0 61 bd
       0.05059277 0.16959515 -0.02166695 -0.055099633
0002f0 2e de 78 3d 79 e6 a0 bd 46 e4 a8 bb 2e da 6f be
       0.060758762 -0.07856459 -0.0051541654 -0.23423073
000300 ef 8e f4 bd a1 22 e4 bd af da 1a 3e 85 0b 85 3d
       -0.11941325 -0.111394174 0.15122484 0.06496338
000310 84 39 b4 bd 31 3c 83 3c f9 b6 80 be 73 dc 54 bd
       -0.08800033 0.016019912 -0.25139597 -0.05196805
000320 c0 78 ca bc e0 79 3f be a0 6b b6 3d 2b 95 76 be
       -0.024715781 -0.18698835 0.089072466 -0.2408034
000330 6e 55 3c bd f1 91 7b 3d 1b 7b 1e be ee f7 3e be
       -0.04597991 0.061418477 -0.15476649 -0.18649265
000340 08 6d 4c be 67 da 04 3f 8c 4c fe 3b 79 c4 ca bc
       -0.19963467 0.51895756 0.00776059 -0.024751889
000350 61 22 0d 3e 0d 1b 2d be 24 b0 98 bd fa 7f ba bc
       0.13782646 -0.1690485 -0.07455471 -0.022766102
000360 88 f3 4f bd d6 06 b4 3d 2c 54 c1 bd 00 32 92 bd
       -0.05076936 0.08790366 -0.09439883 -0.07138443
000370 bf 77 93 bd 01 f7 9e bd 9c 83 41 3d 90 1d 73 3d
       -0.07200574 -0.07761956 0.047244653 0.059354365
000380 85 b6 e8 bd 61 63 1c 3c 2a b2 32 bd 16 10 17 be
       -0.11362938 0.009545178 -0.04362694 -0.1475223
000390 4c 33 8b be d3 a5 c1 3b 3e a0 88 bd 74 23 7f be
       -0.27187574 0.0059096604 -0.06671189 -0.24915868
0003a0 cd 32 86 3b 41 3f 4d be 05 ae b7 bc 28 65 c6 bd
       0.0040954114 -0.2004366 -0.022421846 -0.09687263
0003b0 1a d8 8d be 71 e1 c5 bd 27 96 83 be 68 67 10 3b
       -0.27703935 -0.0966214 -0.25700495 0.0022034291
0003c0 67 43 f2 bd c2 6e 4f 3b 40 2a a5 bc 27 50 31 be
       -0.11829262 0.003165171 -0.020161748 -0.17315732
0003d0 6f 5e 12 be 48 9b ee bd 9e 28 ef 3d b8 a7 1d 3e
       -0.14293836 -0.11650711 0.11677669 0.15396011
0003e0 fc ab 27 3f e5 2b 54 be 79 bc 06 3e bb d9 b0 bd
       0.654968 -0.2071987 0.13157834 -0.08635279
0003f0 f4 af a4 3e 62 57 a2 3d be 68 40 be 46 1a 8a 3e
       0.32165492 0.07926823 -0.18789956 0.2697317

text_fc.0.bias f4 [3]
000000 58 8b 1c 3d ee be 34 3d a5 9d 3b 3b
       0.038218826 0.044127397 0.00286279

image_fc.0.weight f4 [3, 2048]
000000 cc cf 37 be b7 d4 bb 3d dd 7f 4d be fe 94 6e 3e
       -0.17950362 0.091714315 -0.20068307 0.23299024
000010 f3 1c fe 3d ce 61 b2 bd fa b4 ac bd 2d 44 0d 3e
       0.124078654 -0.08710061 -0.08432956 0.13795538
000020 ff 03 43 3e 5b 91 ab bd 03 92 5b 3d 89 36 17 be
       0.19044493 -0.08377334 0.053606045 -0.14766897
000030 db 47 ec 3c 9a f9 1f bc de 6e 0a bd 84 c5 8a bc
       0.028842857 -0.0097640995 -0.033797137 -0.016939886
000040 b3 e7 94 bd 2e 80 76 3d 5c 61 6d bd 60 93 4c 3d
       -0.072707556 0.060180835 -0.057954177 0.049945235
000050 3e 27 97 3c 4c 5d 25 bd c0 34 58 3e 36 9f a4 3d
       0.01845133 -0.040372178 0.21113873 0.080381796
000060 5d 06 8b 3b 0f 8b 2d be f9 81 07 be ba 7c 9e 3d
       0.004242702 -0.16947578 -0.13233174 0.077386335
000070 73 c0 1b be 1e bf 35 3c 9d ef 84 bc 69 a2 68 bd
       -0.15210132 0.011092929 -0.016227538 -0.05679551
000080 3d 0e 03 3e b2 dc 62 be e8 83 22 3d 90 b4 54 3d
       0.127984 -0.22154501 0.039676577 0.05193001
000090 71 cf c9 3d ca 7d b7 bd ab 31 1b 3d 48 d6 e0 3c
       0.098540194 -0.08959539 0.037889164 0.027445927
0000a0 5e 96 1b 3e f3 f5 21 bd c5 88 ce 3d be 0d 0b 3e
       0.1519408 -0.039541196 0.100846805 0.13579461
0000b0 45 98 e8 3d 52 20 f2 3d 44 ef 88 3d d6 01 39 be
       0.11357168 0.11822571 0.06686261 -0.18067107
0000c0 c1 bd a4 bd ad 71 a3 bc 43 97 5a 3e 8d a4 7c 3e
       -0.08044005 -0.019951666 0.21346764 0.24672146
0000d0 e6 66 ed bb 6b be 8f 3d 8c 8d c4 3d d7 b3 ec bd
       -0.0072449325 0.07018741 0.095973104 -0.11557739
0000e0 ab 0f 12 bd 62 c2 46 bd a1 fd 8b bb 94 60 30 3e
       -0.035659473 -0.04852522 -0.0042721783 0.17224342
0000f0 bc b4 07 bd 62 6c 9d bd 03 74 a0 3d e1 dd 43 3e
       -0.033131346 -0.07686688 0.078346275 0.19127609
000100 22 63 45 bd 47 fb 0c 3b ea 42 e2 3b de cb f2 3c
       -0.048190244 0.0021512078 0.0069049494 0.029638227
000110 51 f4 8d bd d3 c4 42 3e 95 b5 83 bd 22 ce ec bd
       -0.06931365 0.19020395 -0.064311184 -0.11562754
000120 a5 cb 3b 3e 4d 30 92 3d 35 ea 19 be 4d f6 ea ba
       0.18339403 0.07138119 -0.15030749 -0.0017926187
000130 b6 e1 03 be db eb f5 bc 97 46 5e be 67 62 9e bd
       -0.1287907 -0.030019691 -0.21706615 -0.077336125
000140 77 1a 99 3e c4 a6 d4 bd d9 ae 88 bc d0 62 c7 bc
       0.29903004 -0.103833705 -0.016684936 -0.02433911
000150 00 0c 8f be f0 56 aa 3d b0 dd e6 3d 82 09 64 bc
       -0.27938843 0.08317363 0.11272752 -0.013918282
000160 f7 b2 a0 3d ce 57 be 3d c3 40 5f 3e c7 8c 63 3e
       0.07846635 0.09294091 0.21802048 0.22221671
000170 da d5 0d bc 2b ce b6 bd c5 90 30 bd d5 16 9e 3d
       -0.008656943 -0.08926042 -0.043106813 0.077191986
000180 1e b1 4f bc 3f 73 7a bb 82 6e 56 bc e3 b7 1a 3d
       -0.012676505 -0.0038215665 -0.013087871 0.037773024
000190 23 7b 4a 3d f1 d7 7a bd 01 dc 8d 3d ca 27 23 3e
       0.04943384 -0.061241094 0.06926728 0.15933147
0001a0 bd c4 dc 3c 4d f7 39 3e 8d 73 9b 3d da 13 8d 3d
       0.02694928 0.18160744 0.07590399 0.06888552
0001b0 72 84 e0 3c a4 f9 0a 3e 7a 76 29 bd 85 bd c3 3b
       0.027406905 0.13571793 -0.041372754 0.00597352
0001c0 e0 5a 25 be cb 09 01 3e 00 84 e1 3c 45 a6 c3 3c
       -0.16147947 0.12601392 0.027528763 0.023882994
0001d0 6e f2 23 3e 82 a5 5c 3e 8e f2 62 be 19 84 8a bb
       0.16010448 0.21547511 -0.2216284 -0.004227173
0001e0 a2 f4 d2 3c b1 93 0e 3d d3 0f 91 3d 6a 8a 46 bd
       0.025751416 0.03480882 0.07083096 -0.048471846
0001f0 3d d6 c4 bc 3f 5e 0b be 37 6a 1b bc a3 c1 03 3e
       -0.024027938 -0.13610171 -0.009485773 0.12866835
000200 63 9d 94 3d 6e 5a 64 3d 70 86 fe 3d 3d ee 44 be
       0.07256582 0.055750303 0.12427986 -0.19231506
000210 0e ba 23 3c 05 e3 85 bc 38 88 ad 3d bb ca db bd
       0.009993089 -0.016343603 0.08473247 -0.10732027
000220 82 71 09 3d 60 65 c6 3d 65 94 c3 bd 36 45 cf 3c
       0.033555515 0.096873045 -0.095497884 0.025301557
000230 e0 7d 14 3e 6b ae 50 3e 68 d1 81 3d d6 92 c8 3d
       0.14501143 0.20379035 0.06338769 0.09793632
000240 5b f8 e5 3c 70 e3 4a 3d 5d 76 48 be 06 36 8a bd
       0.028072527 0.049533308 -0.19576402 -0.067485854
000250 6f da c8 bd 6a f7 15 3e 83 83 78 bc 73 7f 6e 3d
       -0.09807288 0.14645162 -0.015168074 0.058227014
000260 69 83 e0 bd 0c 84 77 3d b2 ef 41 be 09 17 7c bb
       -0.109625645 0.060428664 -0.18939093 -0.0038465878
000270 a2 80 b6 3d 57 20 db 3d 02 12 b3 3b bc e8 8c be
       0.089112535 0.10699528 0.005464793 -0.27521312
000280 45 41 86 bd 51 9e 63 bd 9a 7f 3a be 03 60 dc 3d
       -0.06555418 -0.055570904 -0.18212739 0.107605
000290 09 c4 84 bc 95 fb e4 3c 59 a8 3a bd be 87 07 3d
       -0.016206758 0.027951995 -0.045570705 0.03308844
0002a0 9e 5f 71 be 6a 0b 0a 3e cd 7f 67 bd 69 e6 da bd
       -0.23571631 0.13480917 -0.056518365 -0.106884785
0002b0 5d a6 57 bd a9 55 4d bb 86 6b 5b be 9d f1 e9 bd
       -0.05264889 -0.0031331575 -0.21427736 -0.11423037
0002c0 af 41 c6 bd 50 4a b9 3d 78 f0 9f bd 61 7f 8b bd
       -0.09680497 0.09047377 -0.07809538 -0.06811405
0002d0 37 4a 05 3d 31 ea 7c 3d 1d af c7 3d 2a 5d a3 bb
       0.03254148 0.06174678 0.09750197 -0.0049854713
0002e0 cc 0a 05 3e 1f 67 8f 3d b5 2f a7 3d 79 72 79 3d
       0.129924 0.07002091 0.08163396 0.060900185
0002f0 ce e0 46 3d d7 43 b8 3d 25 df b2 3d 56 31 09 be
       0.048554234 0.089973144 0.08733968 -0.13397726
000300 93 79 f9 bd 85 47 15 be 28 aa ec bd 2f 6c dd bd
       -0.121813916 -0.14578064 -0.11555892 -0.1081165
000310 25 e1 06 be d8 7b ad bd 21 c5 25 3e 56 fc 88 bc
       -0.13171823 -0.08470887 0.1618848 -0.016721886
000320 e7 31 8d 3c f4 18 85 3d dd 1c 9c 3d d2 c0 26 3d
       0.01723571 0.064989 0.07622693 0.04071123
000330 4a 7c d9 bd 3a f5 0e bd c8 89 9b 3b d4 ab 3b be
       -0.106194094 -0.034901835 0.0047466494 -0.18327266
000340 36 2a 37 be 6f 5b c7 3a 0d 9b af bd 13 9e 02 be
       -0.17887196 0.0015209744 -0.085744955 -0.12755613
000350 7a a9 a4 bd 05 7b 12 bd 32 33 58 bd 47 0f c1 3c
       -0.080401376 -0.03576185 -0.0527832 0.023566855
000360 a0 6a f2 3d 42 90 a7 bd 3a 69 94 3e a7 f5 26 bd
       0.11836743 -0.08181812 0.28986531 -0.040761616
000370 60 cf 08 bc 64 12 ac bd 53 31 71 3d e6 a3 9f 3d
       -0.008350223 -0.08401945 0.05888493 0.07794933
000380 2b 81 34 be 3e 3e bd bd a3 b1 8e 3d 35 4e 17 3e
       -0.17627399 -0.092403874 0.06967475 0.14775927
000390 36 00 a6 bd 82 71 b4 bc 29 d8 fb 3d 4b 49 8e 3d
       -0.08105509 -0.022026781 0.12297089 0.06947573
0003a0 ed 70 fe 3c 72 bb f0 3c 52 5c 4e 3d 01 0f 9e bc
       0.031059707 0.029386256 0.050381012 -0.019294264
0003b0 43 01 cf 3d b7 db 2e bd 04 85 8c 3d ac a0 6e 3e
       0.101076625 -0.042690005 0.06861308 0.23303479
0003c0 ad 43 1a 3d f5 d7 63 bd b2 d5 63 bd 4b 10 f3 3d
       0.037662197 -0.055625875 -0.055623718 0.11868342
0003d0 ee 02 c4 bc 46 29 10 bc 1d 4d cd bd 57 de 11 be
       -0.023927178 -0.008798903 -0.10024474 -0.14244972
0003e0 11 cf a8 bd f2 be f8 3d 22 df b1 bd 28 3c 6e bd
       -0.0824262 0.12145795 -0.08685137 -0.05816284
0003f0 c3 3c c9 3c 18 04 b5 3d a6 f7 87 bc 11 3a 79 bd
       0.024565106 0.088386714 -0.01659758 -0.060846392

image_fc.0.bias f4 [3]
000000 e1 86 ff bc 60 dd 01 80 b4 62 00 80
       -0.031192245 -1.7125e-40 -3.5408e-41

attention.0.weight f4 [3, 6]
000000 9f 3c 00 80 98 73 00 80 f1 33 00 00 5e 29 00 80
       -2.1747e-41 -4.1467e-41 1.8633e-41 -1.484e-41
000010 04 20 00 80 de 29 00 80 39 2c 00 80 5d 47 00 00
       -1.1485e-41 -1.5019e-41 -1.5864e-41 2.56e-41
000020 03 3b 00 80 a4 0f 00 80 dc a2 00 80 79 3d 00 00
       -2.117e-41 -5.611e-42 -5.8423e-41 2.2052e-41
000030 1e 1b 00 80 9d 2c 00 00 8f 28 00 80 3b 92 00 00
       -9.728e-42 1.6004e-41 -1.455e-41 5.2458e-41
000040 eb 46 00 00 a9 90 00 80
       2.544e-41 -5.1894e-41

attention.0.bias f4 [3]
000000 ef 5d 00 00 2e 25 00 00 6d 9f 00 00
       3.3697e-41 1.3338e-41 5.7191e-41

attention.2.weight f4 [1, 3]
000000 be 81 00 80 45 3b 00 00 0f 56 00 80
       -4.6543e-41 2.1262e-41 -3.0872e-41

classifier.0.weight f4 [3, 6]
000000 0a 1c 00 00 89 99 00 80 2a 1d 00 80 cd ca f5 aa
       1.0059e-41 -5.5078e-41 -1.0462e-41 -4.3661464e-13
000010 35 70 00 80 62 71 00 00 d4 14 79 bf f0 7e e2 bf
       -4.0252e-41 4.0674e-41 -0.97297406 -1.7694988
000020 68 25 63 3f 4e 65 32 3f 20 62 c7 ba c9 40 3e b9
       0.8872895 0.6968583 -0.0015211739 -0.00018143946
000030 94 64 00 00 4f 02 00 00 66 39 00 80 02 98 00 80
       3.608e-41 8.28e-43 -2.059e-41 -5.453e-41
000040 e8 a3 00 80 d8 5f 00 00
       -5.8798e-41 3.4382e-41

classifier.0.bias f4 [3]
000000 77 a2 b3 8d ad 51 ed 3e 70 56 00 80
       -1.1070839e-30 0.46351376 -3.1008e-41

classifier.3.weight f4 [3, 3]
000000 10 73 00 80 7e 18 73 3f ff 78 00 00 3a 5e 2e 15
       -4.1277e-41 0.9495925 4.3405e-41 3.5213352e-26
000010 29 9e 43 c0 be 90 00 00 53 5b 00 80 93 b6 b6 3e
       -3.0565283 5.1924e-41 -3.2761e-41 0.35686168
000020 ea 49 00 80
       -2.6515e-41

classifier.3.bias f4 [3]
000000 a6 26 90 bf 04 94 aa 3f 08 85 ed 3d
       -1.1261795 1.3326421 0.11597639
